…
[2021-11-21 16:01:19,802: INFO: 01_basic_model_creation]: >>>>> stage basic model completed!<<<<<

[2021-11-23 12:01:07,128: INFO: 01_basic_model_creation]: 
********************
[2021-11-23 12:01:07,128: INFO: 01_basic_model_creation]: >>>>> stage basic model started <<<<<
[2021-11-23 12:01:07,129: INFO: common]: yaml file: configs/config.yaml loaded successfully
[2021-11-23 12:01:07,490: INFO: 01_basic_model_creation]: base model summary: 
Model: "sequential"
_________________________________________________________________
 Layer (type)                Output Shape              Param #   
=================================================================
 flatten (Flatten)           (None, 784)               0         
                                                                 
 dense (Dense)               (None, 300)               235500    
                                                                 
 leaky_re_lu (LeakyReLU)     (None, 300)               0         
                                                                 
 dense_1 (Dense)             (None, 100)               30100     
                                                                 
 leaky_re_lu_1 (LeakyReLU)   (None, 100)               0         
                                                                 
 dense_2 (Dense)             (None, 10)                1010      
                                                                 
=================================================================
Total params: 266,610
Trainable params: 266,610
Non-trainable params: 0
_________________________________________________________________

[2021-11-23 12:01:31,588: INFO: common]: created directory at: artifacts\models
[2021-11-23 12:01:31,604: INFO: 01_basic_model_creation]: base model saved at artifacts\models\base_model.h5
…
AttributeError: 'NoneType' object has no attribute 'compile'
[2021-11-23 18:03:56,662: INFO: 02_transfer_learning]: 
********************
[2021-11-23 18:03:56,662: INFO: 02_transfer_learning]: >>>>> stage transfer model started <<<<<
[2021-11-23 18:03:56,663: INFO: common]: yaml file: configs/config.yaml loaded successfully
[2021-11-23 18:03:57,049: INFO: 02_transfer_learning]: base model summary: 
Model: "sequential"
_________________________________________________________________
 Layer (type)                Output Shape              Param #   
=================================================================
 flatten (Flatten)           (None, 784)               0         
                                                                 
 dense (Dense)               (None, 300)               235500    
                                                                 
 leaky_re_lu (LeakyReLU)     (None, 300)               0         
                                                                 
 dense_1 (Dense)             (None, 100)               30100     
                                                                 
 leaky_re_lu_1 (LeakyReLU)   (None, 100)               0         
                                                                 
 dense_2 (Dense)             (None, 10)                1010      
                                                                 
=================================================================
Total params: 266,610
Trainable params: 266,610
Non-trainable params: 0
_________________________________________________________________

[2021-11-23 18:03:57,070: INFO: 02_transfer_learning]: transfer model summary: 
Model: "sequential"
_________________________________________________________________
 Layer (type)                Output Shape              Param #   
=================================================================
 flatten (Flatten)           (None, 784)               0         
                                                                 
 dense (Dense)               (None, 300)               235500    
                                                                 
 leaky_re_lu (LeakyReLU)     (None, 300)               0         
                                                                 
 dense_1 (Dense)             (None, 100)               30100     
                                                                 
 leaky_re_lu_1 (LeakyReLU)   (None, 100)               0         
                                                                 
 output_layer (Dense)        (None, 1)                 101       
                                                                 
=================================================================
Total params: 265,701
Trainable params: 101
Non-trainable params: 265,600
_________________________________________________________________

[2021-11-23 18:04:14,575: INFO: common]: created directory at: artifacts\models
[2021-11-23 18:04:14,575: ERROR: 02_transfer_learning]: 'list' object has no attribute 'save'
…
